…
tatefulPartitionedCall_4_at___inference_train_step_14892' both implement 'gru_21d0a1fd-6bb2-44d6-a740-33f71e9bdef4' but their signatures do not match.
HBox(children=(IntProgress(value=0), HTML(value='')))

36602
Model: "generate_scores_rnn"
_________________________________________________________________
Layer (type)                 Output Shape              Param #   
=================================================================
input_1 (InputLayer)         [(None, 50)]              0         
_________________________________________________________________
embedding (Embedding)        (None, 50, 100)           3660300   
_________________________________________________________________
bidirectional (Bidirectional (None, 50, 256)           176640    
_________________________________________________________________
seq_self_attention (SeqSelfA [(None, 50, 256), (None,  65537     
_________________________________________________________________
dropout (Dropout)            (None, 50, 256)           0         
_________________________________________________________________
bidirectional_1 (Bidirection (None, 50, 256)           296448    
_________________________________________________________________
seq_self_attention_1 (SeqSel [(None, 50, 256), (None,  65537     
_________________________________________________________________
dropout_1 (Dropout)          (None, 50, 256)           0         
_________________________________________________________________
bidirectional_2 (Bidirection (None, 256)               296448    
_________________________________________________________________
dropout_2 (Dropout)          (None, 256)               0         
_________________________________________________________________
dense (Dense)                (None, 64)                16448     
_________________________________________________________________
leaky_re_lu (LeakyReLU)      (None, 64)                0         
_________________________________________________________________
dense_1 (Dense)              (None, 36603)             2379195   
=================================================================
Total params: 6,956,553
Trainable params: 6,956,553
Non-trainable params: 0
_________________________________________________________________
Optimizer: <class 'tensorflow.python.keras.optimizer_v2.adadelta.Adadelta'>
HBox(children=(IntProgress(value=0, description='epochs', max=50, style=ProgressStyle(description_width='initial')), HTML(value='')))
…
